Using TensorFlow backend.
------------------------------
Loading and preprocessing train data...
------------------------------
imgs_train =  39
imgs_mask_train =  39
------------------------------
Creating and compiling model...
------------------------------
____________________________________________________________________________________________________
Layer (type)                     Output Shape          Param #     Connected to                     
====================================================================================================
input_1 (InputLayer)             (None, 256, 256, 1)   0                                            
____________________________________________________________________________________________________
conv2d_1 (Conv2D)                (None, 256, 256, 32)  320         input_1[0][0]                    
____________________________________________________________________________________________________
elu_1 (ELU)                      (None, 256, 256, 32)  0           conv2d_1[0][0]                   
____________________________________________________________________________________________________
batch_normalization_1 (BatchNorm (None, 256, 256, 32)  128         elu_1[0][0]                      
____________________________________________________________________________________________________
conv2d_2 (Conv2D)                (None, 256, 256, 32)  9248        batch_normalization_1[0][0]      
____________________________________________________________________________________________________
elu_2 (ELU)                      (None, 256, 256, 32)  0           conv2d_2[0][0]                   
____________________________________________________________________________________________________
batch_normalization_2 (BatchNorm (None, 256, 256, 32)  128         elu_2[0][0]                      
____________________________________________________________________________________________________
max_pooling2d_1 (MaxPooling2D)   (None, 128, 128, 32)  0           batch_normalization_2[0][0]      
____________________________________________________________________________________________________
conv2d_3 (Conv2D)                (None, 128, 128, 64)  18496       max_pooling2d_1[0][0]            
____________________________________________________________________________________________________
elu_3 (ELU)                      (None, 128, 128, 64)  0           conv2d_3[0][0]                   
____________________________________________________________________________________________________
batch_normalization_3 (BatchNorm (None, 128, 128, 64)  256         elu_3[0][0]                      
____________________________________________________________________________________________________
conv2d_4 (Conv2D)                (None, 128, 128, 64)  36928       batch_normalization_3[0][0]      
____________________________________________________________________________________________________
elu_4 (ELU)                      (None, 128, 128, 64)  0           conv2d_4[0][0]                   
____________________________________________________________________________________________________
batch_normalization_4 (BatchNorm (None, 128, 128, 64)  256         elu_4[0][0]                      
____________________________________________________________________________________________________
max_pooling2d_2 (MaxPooling2D)   (None, 64, 64, 64)    0           batch_normalization_4[0][0]      
____________________________________________________________________________________________________
conv2d_5 (Conv2D)                (None, 64, 64, 128)   73856       max_pooling2d_2[0][0]            
____________________________________________________________________________________________________
elu_5 (ELU)                      (None, 64, 64, 128)   0           conv2d_5[0][0]                   
____________________________________________________________________________________________________
batch_normalization_5 (BatchNorm (None, 64, 64, 128)   512         elu_5[0][0]                      
____________________________________________________________________________________________________
conv2d_6 (Conv2D)                (None, 64, 64, 128)   147584      batch_normalization_5[0][0]      
____________________________________________________________________________________________________
elu_6 (ELU)                      (None, 64, 64, 128)   0           conv2d_6[0][0]                   
____________________________________________________________________________________________________
batch_normalization_6 (BatchNorm (None, 64, 64, 128)   512         elu_6[0][0]                      
____________________________________________________________________________________________________
max_pooling2d_3 (MaxPooling2D)   (None, 32, 32, 128)   0           batch_normalization_6[0][0]      
____________________________________________________________________________________________________
conv2d_7 (Conv2D)                (None, 32, 32, 256)   295168      max_pooling2d_3[0][0]            
____________________________________________________________________________________________________
elu_7 (ELU)                      (None, 32, 32, 256)   0           conv2d_7[0][0]                   
____________________________________________________________________________________________________
batch_normalization_7 (BatchNorm (None, 32, 32, 256)   1024        elu_7[0][0]                      
____________________________________________________________________________________________________
conv2d_8 (Conv2D)                (None, 32, 32, 256)   590080      batch_normalization_7[0][0]      
____________________________________________________________________________________________________
elu_8 (ELU)                      (None, 32, 32, 256)   0           conv2d_8[0][0]                   
____________________________________________________________________________________________________
batch_normalization_8 (BatchNorm (None, 32, 32, 256)   1024        elu_8[0][0]                      
____________________________________________________________________________________________________
max_pooling2d_4 (MaxPooling2D)   (None, 16, 16, 256)   0           batch_normalization_8[0][0]      
____________________________________________________________________________________________________
conv2d_9 (Conv2D)                (None, 16, 16, 512)   1180160     max_pooling2d_4[0][0]            
____________________________________________________________________________________________________
elu_9 (ELU)                      (None, 16, 16, 512)   0           conv2d_9[0][0]                   
____________________________________________________________________________________________________
batch_normalization_9 (BatchNorm (None, 16, 16, 512)   2048        elu_9[0][0]                      
____________________________________________________________________________________________________
conv2d_10 (Conv2D)               (None, 16, 16, 512)   2359808     batch_normalization_9[0][0]      
____________________________________________________________________________________________________
elu_10 (ELU)                     (None, 16, 16, 512)   0           conv2d_10[0][0]                  
____________________________________________________________________________________________________
batch_normalization_10 (BatchNor (None, 16, 16, 512)   2048        elu_10[0][0]                     
____________________________________________________________________________________________________
max_pooling2d_5 (MaxPooling2D)   (None, 8, 8, 512)     0           batch_normalization_10[0][0]     
____________________________________________________________________________________________________
conv2d_11 (Conv2D)               (None, 8, 8, 1024)    4719616     max_pooling2d_5[0][0]            
____________________________________________________________________________________________________
elu_11 (ELU)                     (None, 8, 8, 1024)    0           conv2d_11[0][0]                  
____________________________________________________________________________________________________
batch_normalization_11 (BatchNor (None, 8, 8, 1024)    4096        elu_11[0][0]                     
____________________________________________________________________________________________________
conv2d_12 (Conv2D)               (None, 8, 8, 1024)    9438208     batch_normalization_11[0][0]     
____________________________________________________________________________________________________
elu_12 (ELU)                     (None, 8, 8, 1024)    0           conv2d_12[0][0]                  
____________________________________________________________________________________________________
batch_normalization_12 (BatchNor (None, 8, 8, 1024)    4096        elu_12[0][0]                     
____________________________________________________________________________________________________
conv2d_transpose_1 (Conv2DTransp (None, 16, 16, 512)   2097664     batch_normalization_12[0][0]     
____________________________________________________________________________________________________
concatenate_1 (Concatenate)      (None, 16, 16, 1024)  0           conv2d_transpose_1[0][0]         
                                                                   batch_normalization_10[0][0]     
____________________________________________________________________________________________________
conv2d_13 (Conv2D)               (None, 16, 16, 256)   2359552     concatenate_1[0][0]              
____________________________________________________________________________________________________
elu_13 (ELU)                     (None, 16, 16, 256)   0           conv2d_13[0][0]                  
____________________________________________________________________________________________________
conv2d_14 (Conv2D)               (None, 16, 16, 256)   590080      elu_13[0][0]                     
____________________________________________________________________________________________________
elu_14 (ELU)                     (None, 16, 16, 256)   0           conv2d_14[0][0]                  
____________________________________________________________________________________________________
dropout_1 (Dropout)              (None, 16, 16, 256)   0           elu_14[0][0]                     
____________________________________________________________________________________________________
conv2d_transpose_2 (Conv2DTransp (None, 32, 32, 256)   262400      dropout_1[0][0]                  
____________________________________________________________________________________________________
concatenate_2 (Concatenate)      (None, 32, 32, 512)   0           conv2d_transpose_2[0][0]         
                                                                   batch_normalization_8[0][0]      
____________________________________________________________________________________________________
conv2d_15 (Conv2D)               (None, 32, 32, 256)   1179904     concatenate_2[0][0]              
____________________________________________________________________________________________________
elu_15 (ELU)                     (None, 32, 32, 256)   0           conv2d_15[0][0]                  
____________________________________________________________________________________________________
conv2d_16 (Conv2D)               (None, 32, 32, 256)   590080      elu_15[0][0]                     
____________________________________________________________________________________________________
elu_16 (ELU)                     (None, 32, 32, 256)   0           conv2d_16[0][0]                  
____________________________________________________________________________________________________
dropout_2 (Dropout)              (None, 32, 32, 256)   0           elu_16[0][0]                     
____________________________________________________________________________________________________
conv2d_transpose_3 (Conv2DTransp (None, 64, 64, 128)   131200      dropout_2[0][0]                  
____________________________________________________________________________________________________
concatenate_3 (Concatenate)      (None, 64, 64, 256)   0           conv2d_transpose_3[0][0]         
                                                                   batch_normalization_6[0][0]      
____________________________________________________________________________________________________
conv2d_17 (Conv2D)               (None, 64, 64, 128)   295040      concatenate_3[0][0]              
____________________________________________________________________________________________________
elu_17 (ELU)                     (None, 64, 64, 128)   0           conv2d_17[0][0]                  
____________________________________________________________________________________________________
conv2d_18 (Conv2D)               (None, 64, 64, 128)   147584      elu_17[0][0]                     
____________________________________________________________________________________________________
elu_18 (ELU)                     (None, 64, 64, 128)   0           conv2d_18[0][0]                  
____________________________________________________________________________________________________
dropout_3 (Dropout)              (None, 64, 64, 128)   0           elu_18[0][0]                     
____________________________________________________________________________________________________
conv2d_transpose_4 (Conv2DTransp (None, 128, 128, 64)  32832       dropout_3[0][0]                  
____________________________________________________________________________________________________
concatenate_4 (Concatenate)      (None, 128, 128, 128) 0           conv2d_transpose_4[0][0]         
                                                                   batch_normalization_4[0][0]      
____________________________________________________________________________________________________
conv2d_19 (Conv2D)               (None, 128, 128, 64)  73792       concatenate_4[0][0]              
____________________________________________________________________________________________________
elu_19 (ELU)                     (None, 128, 128, 64)  0           conv2d_19[0][0]                  
____________________________________________________________________________________________________
conv2d_20 (Conv2D)               (None, 128, 128, 64)  36928       elu_19[0][0]                     
____________________________________________________________________________________________________
elu_20 (ELU)                     (None, 128, 128, 64)  0           conv2d_20[0][0]                  
____________________________________________________________________________________________________
dropout_4 (Dropout)              (None, 128, 128, 64)  0           elu_20[0][0]                     
____________________________________________________________________________________________________
conv2d_transpose_5 (Conv2DTransp (None, 256, 256, 32)  8224        dropout_4[0][0]                  
____________________________________________________________________________________________________
concatenate_5 (Concatenate)      (None, 256, 256, 64)  0           conv2d_transpose_5[0][0]         
                                                                   batch_normalization_2[0][0]      
____________________________________________________________________________________________________
conv2d_21 (Conv2D)               (None, 256, 256, 32)  18464       concatenate_5[0][0]              
____________________________________________________________________________________________________
elu_21 (ELU)                     (None, 256, 256, 32)  0           conv2d_21[0][0]                  
____________________________________________________________________________________________________
conv2d_22 (Conv2D)               (None, 256, 256, 32)  9248        elu_21[0][0]                     
____________________________________________________________________________________________________
elu_22 (ELU)                     (None, 256, 256, 32)  0           conv2d_22[0][0]                  
__________________________________________________________________________________________train_long_ncmir.py:252: UserWarning: The `nb_epoch` argument in `fit` has been renamed `epochs`.
  callbacks=[model_checkpoint])
2017-06-14 05:34:28.066389: W tensorflow/core/platform/cpu_feature_guard.cc:45] The TensorFlow library wasn't compiled to use SSE4.1 instructions, but these are available on your machine and could speed up CPU computations.
…
